baselines/dqn/pretrained/model.pth (torch, 125911 bytes, 6 tensors)

layers.0.weight f4 [128, 110]
0.054382175 -0.10159101 -0.10951259 0.012365942 -0.09307451 0.034122523 -0.02536885 -0.009563237
-0.114847265 -0.0063392497 -0.030291 -0.078312986 -0.006034576 -0.037156533 -0.013123409 -0.015606836
-0.045042876 -0.13252868 0.072170466 -0.020990293 -0.10367897 -0.08103151 -0.015981525 -0.06518025
-0.03361884 -0.038985904 -0.06274625 0.04287393 -0.15047033 -0.027435062 -0.010238963 0.09044121
0.034545053 -0.09318138 -0.13650282 -0.16229132 0.07389083 -0.06687898 -0.029885452 -0.08942857
0.09439578 -0.06192101 0.06627091 -0.046502758 -0.16053937 0.03378896 -0.11115378 -0.053835854
-0.056007527 -0.013173404 -0.13099703 -0.049585186 0.0081910165 -0.13038287 0.100223385 0.017606558
-0.096826725 -0.10013708 0.054750253 0.0065330705 -0.06709673 0.003861588 0.004136403 0.084562115
-0.0879822 -0.060391214 -0.024378775 0.013926035 -0.07904392 -0.070017025 0.024130695 -0.10162694
0.018836007 -0.0427208 0.03130645 0.020965563 0.034667842 0.009510213 -0.088301316 0.047992676
-0.1462886 -0.07193961 -0.030437669 -0.05695645 0.038202427 -0.055218417 -0.091445 0.06748437
-0.0418762 -0.025608439 0.03065235 -0.071497805 0.0191549 0.022901846 -0.06383991 -0.045239158
0.03251075 0.017078666 -0.040557686 -0.028862828 0.004082378 -0.105068035 0.053083852 -0.01761955
-0.14189395 -0.11527064 0.09060344 -0.026635943 0.060559954 -0.028845763 0.025312893 0.046976537
0.03296979 -0.09295259 -0.012724326 0.04334487 0.041980505 0.0121356705 -0.16095828 -0.069517046
-0.09293345 -0.044338014 0.06071127 -0.084852375 0.022581836 -0.07837179 -0.13777487 0.010762339
0.05085339 0.052120443 -0.088105276 -0.010604481 0.057355493 0.036758233 0.032761157 0.022569142
0.026642988 0.026142256 -0.11802432 -0.15165645 -0.08177168 -0.037532244 -0.10016277 0.010997244
-0.022259442 -0.059451096 0.007532513 -0.0020455916 -0.011387574 0.04297317 -0.055497494 0.051036946
-0.03303566 -0.026391106 -0.12613517 -0.058673557 -0.09031709 -0.10987196 0.03650455 -0.05625587
-0.099456996 0.009183415 -0.01972518 0.02046143 -0.06855191 -0.0016598975 -0.054252878 -0.040656272
-0.100221336 -0.07106943 -0.051606257 0.029237358 0.0066772955 0.023552092 0.07281123 0.07159337
0.043676138 -0.02107755 -0.08887204 0.050933257 -0.04837596 -0.017249204 -0.0821407 -0.039993018
-0.08172935 0.06577959 -0.10667288 -0.09766178 -0.02563686 -0.07608855 -0.02306901 -0.036701217
-0.060010266 -0.010112656 0.048589114 -0.052709665 0.025162827 0.038545717 0.083415 -0.07597566
0.016406024 -0.089103594 0.06283271 -0.05886277 0.03356022 -0.018383121 -0.030464692 -0.008616046
0.0017146438 0.020785864 -0.037826072 -0.021797225 -0.10940695 0.03593633 0.03866486 0.047980603
0.04557134 -0.10288256 -0.060379703 0.039550647 -0.05002556 0.04834193 -0.09957859 -0.100983575
0.014178557 -0.09503242 -0.060973268 0.004236711 -0.09772776 0.113331795 -0.058889728 -0.10058021
0.05143372 -0.027662762 -0.0503897 -0.009261214 -0.097159386 0.009823761 0.07790232 -0.11256104
-0.1070894 -0.040397655 0.028142665 -0.022619449 -0.07898009 -0.0443364 -0.10815919 -0.09670511
-0.09972252 0.054072086 0.050013307 -0.03819616 -0.01731075 0.019698149 -0.04255433 -0.06643654
00000000: d8bf 5e3d f30e d0bd 2348 e0bd 859a 4a3c
00000010: d99d bebd 0fc4 0b3d 56d2 cfbc 20af 1cbc
00000020: 0b35 ebbd 7bb9 cfbb d524 f8bc 8f62 a0bd
00000030: b1bd c5bb 7331 18bd 9103 57bc d1b3 7fbc
00000040: e17e 38bd 99b5 07be 1cce 933d d6f3 abbc
00000050: a455 d4bd d9f3 a5bd b0eb 82bc 397d 85bd
00000060: e9b3 09bd afaf 1fbd 1b81 80bd 939c 2f3d
00000070: e514 1abe 7fbf e0bc 53c1 27bc 3e39 b93d
00000080: 1d7f 0d3d e1d5 bebd 65c7 0bbe b22f 26be
00000090: 1354 973d d9f7 88bd 56d2 f4bc 5326 b7bd
000000a0: 9352 c13d e3a0 7dbd 0bb9 873d ad79 3ebd
000000b0: 6f64 24be 4b66 0a3d 98a4 e3bd fc82 5cbd
000000c0: 2668 65bd 43d5 57bc 1624 06be d619 4bbd
000000d0: 9d33 063c 1683 05be eb41 cd3d a13b 903c
000000e0: 174d c6bd ab14 cdbd cd41 603d 5e13 d63b
000000f0: 036a 89bd b212 7d3b aa8a 873b e72e ad3d
00000100: 0330 b4bd c75c 77bd ffb5 c7bc 062a 643c
00000110: c7e1 a1bd 1665 8fbd bcad c53c c921 d0bd
00000120: f84d 9a3c 01fc 2ebd 313b 003d f9bf ab3c
00000130: deff 0d3d b9d0 1b3c 52d7 b4bd f893 443d
00000140: aecc 15be 1355 93bd 6b58 f9bc 2b4b 69bd
00000150: 267a 1c3d b52c 62bd 8447 bbbd 3f35 8a3d
00000160: 6186 2bbd cac8 d1bc a31a fb3c 716d 92bd
00000170: bdea 9c3c a79c bb3c 80be 82bd b24c 39bd
00000180: fe29 053d 8fe8 8b3c d11f 26bd bd71 ecbc
00000190: 78c5 853b e92d d7bd 746e 593d e056 90bc
000001a0: a64c 11be 0313 ecbd 4c8e b93d 9f33 dabc
000001b0: b70d 783d f34d ecbc fc5c cf3c 786a 403d
000001c0: 550b 073d ed5d bebd b179 50bc 648a 313d
000001d0: c0f3 2b3d b1d4 463c 3fd2 24be f45e 8ebd
000001e0: e553 bebd c79b 35bd 61ac 783d 15c7 adbd
000001f0: 8bfd b83c 6481 a0bd db14 0dbe 8654 303c
00000200: a54b 503d 3f7c 553d 8a70 b4bd 6bbe 2dbc
00000210: 98ed 6a3d cd8f 163d 9030 063d ece2 b83c
00000220: 6542 da3c 4928 d63c bcb6 f1bd d44b 1bbe
00000230: e977 a7bd 69bb 19bd 2322 cdbd c92d 343c
00000240: 6f59 b6bc fe82 73bd 4cd3 f63b 550f 06bb
00000250: f292 3abc a204 303d 5751 63bd 1e0c 513d
00000260: 6650 07bd 2932 d8bc 9429 01be af53 70bd
00000270: 2bf8 b8bd 8d04 e1bd cc85 153d 8e6c 66bd
00000280: 1cb0 cbbd 0976 163c b396 a1bc bb9e a73c
00000290: f264 8cbd eb90 d9ba 4438 5ebd 3187 26bd
000002a0: d840 cdbd d98c 91bd 1561 53bd 2f83 ef3c
000002b0: 37cd da3b 51f0 c03c 0e1e 953d 8b9f 923d
000002c0: c0e5 323d d3aa acbc 8b02 b6bd 649f 503d
000002d0: df25 46bd 344e 8dbc 6239 a8bd b8cf 23bd
000002e0: b861 a7bd 73b7 863d 5077 dabd e602 c8bd
000002f0: 6404 d2bc 50d4 9bbd 38fb bcbc 0454 16bd
00000300: 53cd 75bd 8eaf 25bc 6105 473d 17e6 57bd
00000310: 4622 ce3c 1de2 1d3d 7cd5 aa3d 2099 9bbd
00000320: ed65 863c f27b b6bd 70ae 803d 171a 71bd
00000330: 7176 093d 3398 96bc 1791 f9bc 512a 0dbc
00000340: e6bd e03a 1e47 aa3c 83ef 1abd 1890 b2bc
00000350: c010 e0bd f931 133d 0b5f 1e3d 4f87 443d
00000360: 03a9 3a3d 17b4 d2bd b550 77bd dcff 213d
00000370: 9ae7 4cbd 3002 463d dcef cbbd 7ad0 cebd
00000380: 2e4d 683c 5ba0 c2bd 1bbf 79bd 1cd4 8a3b
00000390: 7e25 c8bd 801a e83d 5b36 71bd fffc cdbd
000003a0: 2aac 523d 049d e2bc 6e65 4ebd 59bc 17bc
000003b0: 80fb c6bd d7f3 203c 408b 9f3d 6786 e6bd
000003c0: b051 dbbd 0378 25bd 728b e63c 6c4c b9bc
000003d0: 50c0 a1bd 169a 35bd 9182 ddbd 540d c6bd
000003e0: 523b ccbd b17a 5d3d c1da 4c3d 9473 1cbd
000003f0: 46cf 8dbc 035e a13c 734d 2ebd e10f 88bd

layers.0.bias f4 [128]
0.0004153399 -0.10524213 -0.057794336 0.47095034 -0.022763707 -0.0016931106 -0.002474329 -0.113327645
-0.029075284 -0.8376246 -0.069158375 0.030262362 0.04915287 0.10764228 -0.019378107 0.006718694
0.004386958 -0.11753789 -0.039409034 0.02754474 0.050516587 -0.083677806 0.06251698 0.06195472
-0.01644782 -0.13539124 0.032165978 0.087369494 1.0303838 0.032342892 -0.057844058 -0.015510481
-0.01923536 -0.0066148136 -0.079068944 0.04793572 0.028276194 -0.2285236 0.0034025193 -0.052064866
-0.027617292 -0.300307 -0.03939151 -0.0002968229 -0.02298903 -0.012423701 0.038468454 -0.10207239
0.07521201 0.019308979 -0.05442028 -0.04092599 0.24405771 -0.08209043 -0.108344465 -0.12908086
-0.18473168 -0.23779778 0.042117365 0.019696794 0.044464618 -0.06919057 -0.048436623 -0.0015303858
-0.61831015 -0.04991289 -0.09527429 -0.022738995 0.0021619094 -0.025296604 -0.040298793 -0.028283114
0.078164905 0.012112236 -0.051471785 0.06610476 -0.07597137 -0.11745544 -0.0031251574 0.32085425
0.010216657 -0.09521241 0.8337548 -0.1055853 -0.35092434 0.33352867 0.85811687 0.04998165
0.02143378 -0.09904954 -0.055368125 0.313605 -0.04303149 -0.047860924 -0.0774756 -0.09641307
0.02296915 0.93280107 0.057235334 -0.94105065 0.07142297 0.080974035 -0.03943717 -0.13800043
-0.09384347 -0.17595468 0.018605614 -0.093995206 0.24570015 0.018151363 -0.084194 -0.18436144
-0.03799182 0.9231852 0.010931526 0.0022336352 -0.065547116 -0.014771695 0.029146316 1.2447952
-0.072021216 -0.020117586 0.075165406 -0.03096342 -0.01391171 1.2028008 -0.19857927 1.4224066
00000000: fac1 d939 3089 d7bd c1b9 6cbd 6720 f13e
00000010: f47a babc 5deb ddba 5a28 22bb 5318 e8bd
00000020: 4a2f eebc 916e 56bf e8a2 8dbd c6e8 f73c
00000030: 8554 493d 8e73 dc3d d6be 9ebc 7e28 dc3b
00000040: 79c0 8f3b b5b7 f0bd 5e6b 21bd 82a5 e13c
00000050: 7bea 4e3d 455f abbd e708 803d 3cc4 7d3d
00000060: 94bd 86bc 00a4 0abe 79c0 033d c7ee b23d
00000070: 9ee3 833f fb79 043d e4ed 6cbd ac1f 7ebc
00000080: 7993 9dbc 14c1 d8bb e6ee a1bd 3f58 443d
00000090: 7aa3 e73c 1702 6abe cdfc 5e3b f841 55bd
000000a0: a93d e2bc d7c1 99be fe58 21bd e59e 9bb9
000000b0: 7e53 bcbc c78c 4bbc 1991 1d3d 540b d1bd
000000c0: c108 9a3d dd2d 9e3c cde7 5ebd 03a2 27bd
000000d0: 44ea 793e 071f a8bd b4e3 ddbd c62d 04be
000000e0: 4d2a 3dbe 4381 73be 4283 2c3d 2c5b a13c
000000f0: 8820 363d c9b3 8dbd 7b65 46bd 3a97 c8ba
00000100: 9349 1ebf 7571 4cbd 2b1f c3bd 2147 babc
00000110: d2ae 0d3b d33a cfbc 5910 25bd fdb1 e7bc
00000120: ec14 a03d 6672 463c 14d4 52bd ef61 873d
00000130: e196 9bbd 7a8c f0bd 71cf 4cbb 0247 a43e
00000140: c463 273c b9fe c2bd f470 553f 1b3d d8bd
00000150: 5bac b3be 45c4 aa3e 8cad 5b3f 8fb9 4c3d
00000160: e595 af3c 7cda cabd b0c9 62bd d690 a03e
00000170: ca41 30bd d109 44bd 87ab 9ebd 3774 c5bd
00000180: cd29 bc3c 0dcc 6e3f 996f 6a3d b2e8 70bf
00000190: 3546 923d b7d5 a53d df88 21bd fc4f 0dbe
000001a0: 0131 c0bd 772d 34be cd6a 983c 8f80 c0bd
000001b0: d298 7b3e 2bb2 943c e76d acbd 3fc9 3cbe
000001c0: 509d 1bbd de55 6c3f 251a 333c 2e62 123b
000001d0: 913d 86bd fb04 72bc 41c4 ee3c 7355 9f3f
000001e0: dc7f 93bd a3cd a4bc 52f0 993d 00a7 fdbc
000001f0: f1ed 63bc 60f5 993f 5d58 4bbe 6b11 b63f

layers.2.weight f4 [128, 128]
-0.09687093 -0.07419132 0.004665975 -0.022360919 -0.10604297 -0.042446915 0.039266195 -0.038610004
0.04419741 -0.09994228 -0.06888441 0.036708854 0.015078957 0.085018255 -0.04186275 -0.065288335
0.044960964 0.024677668 0.024686743 -0.068644546 0.027865037 0.02523839 -0.046879783 -0.052694
0.012331451 0.11348993 -0.019188564 -0.023185803 -0.027726037 0.030379131 0.08946033 0.039999105
0.007718508 0.04864075 -0.031967215 -0.014514486 -0.021821218 0.03251691 -0.12779427 0.06762904
0.06912122 -0.08065923 0.08113687 -0.11249302 -0.08637421 -0.09012715 -0.032712 -0.02093413
-0.07630056 -0.03475486 -0.017576266 -0.045756955 -0.04818717 0.027692206 0.04134757 -0.07009264
-0.021960523 -0.07825181 0.027271481 -0.035220645 -0.032699708 -0.033563424 0.039249416 -0.047181528
-0.0307787 -0.017679675 -0.10886838 0.06311786 -0.10753381 -0.02210717 -0.07404346 0.0564399
0.020347223 0.065800436 -0.08248976 -0.10133464 0.0043451022 -0.07363741 0.03124748 -0.0041287625
-0.085975796 -0.0510547 0.02305618 0.05728279 -0.1145898 0.045324124 0.0007938678 0.0056162723
-0.1109348 -0.042577356 -0.003937171 -0.08966806 0.017693102 -0.00845274 0.06114283 0.06793613
-0.09158038 -0.031363267 0.06526884 -0.12559006 -0.016664332 -0.044412736 0.042481977 -0.055718925
0.060004193 -0.021451253 0.029915309 -0.058226958 -0.088060886 0.01747907 -0.06503531 -0.104674764
0.03839011 -0.028580721 0.013685208 -0.051743593 -0.07001378 -0.06784097 -0.0072698346 -0.14036274
-0.073770285 0.08608186 -0.059895486 -0.10096067 -0.0040750974 -0.09072782 0.05302302 0.055835806
-0.015034506 -0.04100763 -0.010124151 -0.062156845 0.060928572 0.04643613 0.078543864 -0.05946681
-0.00039228264 0.03032212 0.008227206 -0.07929066 -0.043614037 -0.04099949 -0.037233192 -0.005523598
-0.04928972 0.010722455 0.0013119533 0.08040838 -0.043832853 0.04065586 -0.008621555 -0.08386223
0.047202542 -0.046482198 -0.025288744 -0.012555714 -0.02074374 0.027280595 0.0014688439 0.028609155
0.049051072 -0.05327211 0.018319907 0.034930635 -0.021744598 -0.07987761 0.055640057 -0.10522063
-0.092005566 -0.0483053 0.028923951 0.03927174 0.03665304 -0.015199755 -0.026487473 -0.06913981
-0.018519497 0.064191826 0.049647193 0.017920721 -0.0036693697 -0.017117139 0.014730899 -0.095479526
-0.009392152 -0.06535156 -0.03961039 -0.0258297 -0.071677275 -0.011432709 -0.026698714 0.053060234
-0.07632898 -0.074340664 -0.083467 0.04026782 -0.013681754 0.02376568 -0.09453001 -0.090612315
0.033001155 0.017325157 0.06332322 -0.04431027 0.07838126 -0.0671336 -0.023639493 -0.017480595
0.023849072 -0.030665483 -0.042701557 0.04703626 -0.052793406 -0.018672258 0.048645012 -0.015429045
-0.057362992 -0.10399793 0.0029426443 -0.07955331 -0.035241157 -0.006057238 0.02571925 0.029470835
-0.016827006 -0.111486256 -0.057075303 -0.06800523 0.020886974 0.014723713 0.009793156 -0.043967612
0.0050590327 -0.06514263 0.03659056 -0.03946583 -0.024387887 -0.10655491 0.0570658 -0.0038431112
-0.05637126 0.026616916 -0.01503418 0.06394954 -0.028938526 -0.07278259 0.008086358 -0.096310146
0.058203917 -0.07563462 -0.03900224 -0.016148113 0.022389818 -0.023792759 -0.06925636 -0.016093398
00000000: 4464 c6bd 9ef1 97bd 09e5 983b 3f2e b7bc
00000010: 0f2d d9bd d1dc 2dbd 97d5 203d 8625 1ebd
00000020: 5808 353d 8aae ccbd 4513 8dbd 065c 163d
00000030: bb0d 773c 0d1e ae3d 4678 2bbd e4b5 85bd
00000040: fd28 383d d228 ca3c da3b ca3c 8395 8cbd
00000050: 3845 e43c bdc0 ce3c 0405 40bd aad5 57bd
00000060: db09 4a3c 696d e83d 5631 9dbc 27f0 bdbc
00000070: b721 e3bc a8dd f83c fa36 b73d 1ad6 233d
00000080: 8aeb fc3b 863b 473d 0ef0 02bd 2bce 6dbc
00000090: 69c2 b2bc 7430 053d 80dc 02be 1881 8a3d
000000a0: 6d8f 8d3d ab30 a5bd 162b a63d be62 e6bd
000000b0: f6e4 b0bd 9594 b8bd 05fd 05bd 0d7e abbc
000000c0: 7843 9cbd 1d5b 0ebd 1afc 8fbc a56b 3bbd
000000d0: e95f 45bd c4da e23c 125c 293d bb8c 8fbd
000000e0: 8ee6 b3bc 7c42 a0bd 7168 df3c 8643 10bd
000000f0: 21f0 05bd cd79 09bd ffc3 203d 6b41 41bd
00000100: 9d23 fcbc f7d4 90bc 63f6 debd f043 813d
00000110: b03a dcbd 191a b5bc 19a4 97bd 862d 673d
00000120: 38af a63c 61c2 863d 64f0 a8bd 8988 cfbd
00000130: 5c61 8e3b 36cf 96bd b7fa ff3c 924a 87bb
00000140: 1414 b0bd bc1e 51bd 50e0 bc3c 5ca1 6a3d
00000150: 0fae eabd caa5 393d 911b 503a b508 b83b
00000160: c931 e3bd 9865 2ebd 6203 81bb e3a3 b7bd
00000170: 20f1 903c 5c7d 0abc e770 7a3d 1922 8b3d
00000180: 7f8e bbbd c576 00bd abab 853d ae9a 00be
00000190: a383 88bc 21ea 35bd 9501 2e3d 8739 64bd
000001a0: f5c6 753d 8aba afbc f310 f53c 647f 6ebd
000001b0: 4459 b4bd 4430 8f3c 3c31 85bd b95f d6bd
000001c0: f33e 1d3d 1e22 eabc ec37 603c 17f1 53bd
000001d0: 6263 8fbd 35f0 8abd cb37 eebb 40bb 0fbe
000001e0: e014 97bd b04b b03d f854 75bd 78c4 cebd
000001f0: 6588 85bb 82cf b9bd ab2e 593d 16b4 643d
00000200: 4a53 76bc 9ef7 27bd c4df 25bc 2d98 7ebd
00000210: 3d90 793d d033 3e3d 9bdb a03d 7893 73bd
00000220: 49ab cdb9 1866 f83c 67cb 063c 2463 a2bd
00000230: a2a4 32bd 15ef 27bd d581 18bd 4cff b4bb
00000240: 04e4 49bd 3cad 2f3c d9f5 ab3a 26ad a43d
00000250: 148a 33bd c286 263d 6c41 0dbc f6bf abbd
00000260: 7457 413d 1e64 3ebd 572a cfbc 7bb6 4dbc
00000270: c7ee a9bc 8e7b df3c 3986 c03a bf5d ea3c
00000280: c7e9 483d db33 5abd a113 963c 6d13 0f3d
00000290: ba21 b2bc df96 a3bd d4e6 633d ea7d d7bd
000002a0: 6a6d bcbd c7db 45bd ecf1 ec3c 67db 203d
000002b0: 8021 163d 6508 79bc 42fc d8bc 2c99 8dbd
000002c0: 33b6 97bc 0177 833d db5a 4b3d 7ace 923c
000002d0: cf79 70bb 3e39 8cbc de59 713c c58a c3bd
000002e0: 8ae1 19bc 0ad7 85bd 813e 22bd cf98 d3bc
000002f0: 89cb 92bd 4250 3bbc 43b7 dabc b055 593d
00000300: 5e52 9cbd eb3f 98bd bff0 aabd dfef 243d
00000310: 6f29 60bc 3eb0 c23c f398 c1bd f392 b9bd
00000320: 382c 073d 7ded 8d3c 9baf 813d b07e 35bd
00000330: 5b86 a03d 577d 89bd 9ca7 c1bc 7733 8fbc
00000340: 215f c33c 2e36 fbbc d4e7 2ebd 18a9 403d
00000350: e63d 58bd 90f6 98bc fe3f 473d 1bca 7cbc
00000360: 75f5 6abd defc d4bd 61d9 403b d9ec a2bd
00000370: 0859 10bd cc7b c6bb 2db1 d23c d26c f13c
00000380: cad8 89bc e852 e4bd cbc7 69bd 5346 8bbd
00000390: 291b ab3c ba3b 713c 7973 203c 6217 34bd
000003a0: 3ec6 a53b 8069 85bd fcdf 153d eca6 21bd
000003b0: 1bc9 c7bc 7639 dabd d4bd 693d b5dc 7bbb
000003c0: 8de5 66bd b80b da3c ec51 76bc faf7 823d
000003d0: 7d10 edbc 0a0f 95bd a57c 043c 413e c5bd
000003e0: 3b67 6e3d 53e6 9abd d0c0 1fbd 0c49 84bc
000003f0: da6a b73c 08e9 c2bc 47d6 8dbd 4dd6 83bc

layers.2.bias f4 [128]
-0.15139093 -0.046366297 -0.11738486 -0.039055128 -0.020259578 1.3336468 -0.06440825 -0.20420152
-0.0042227036 -0.024107395 -0.33575624 -0.2066572 -0.2073239 0.022314904 -0.085520975 -0.025071902
-0.02027013 -0.22184198 -0.0003698011 -0.18689688 -0.3210343 0.06342204 -0.031890385 -0.116335355
0.19394247 -0.11676966 -0.08453813 -0.063912556 -0.07498293 -0.037054997 -0.011557241 0.5035549
-0.035878085 -0.13320583 0.21019933 -0.13411826 -0.061130032 -0.054638997 -0.09746201 -0.051999606
-0.0027290157 -0.02880957 -0.4614581 -0.55419797 -0.0400082 -0.066803955 -0.022733396 -0.046082646
-0.24596088 0.1664565 -0.51374114 -0.008295217 -0.18635394 -0.08564523 -0.62926793 -0.03580423
-0.3023721 -0.1717743 -0.06306703 -0.07238768 -0.04113862 -0.54595196 -0.10774213 -0.132935
-0.19323808 -0.020598922 -0.19509737 -0.023732986 -0.046026673 -0.11274934 0.4437632 -0.06283279
0.09402295 -0.16416708 -0.031379953 -0.056520596 -0.010186317 -0.1360262 0.2093855 -0.0116323065
-0.14188643 -0.015750414 -0.17791978 0.021217568 1.3401984 0.42485315 -0.1039447 -0.29009625
-0.056947682 -0.08181358 -0.05192713 -0.06842081 -0.007087815 -0.017535763 0.13706903 -0.1821626
-0.02989303 1.1300868 -0.001215106 -0.077819705 -0.018234843 0.8482992 0.2644809 -0.21439016
-0.3374637 -0.123474285 1.4761866 -0.064886026 -0.03472246 -0.061482824 -0.42180192 -0.17458156
-0.13236615 0.16537292 -0.09031376 -0.2991595 0.5085337 -0.0051258863 -0.15707442 -0.02986427
-0.026074633 -0.02392086 -0.5115947 -0.009523357 1.0364603 -0.086630754 -0.062414795 -0.27941045
00000000: 3906 1bbe 96ea 3dbd 7967 f0bd 45f8 1fbd
00000010: 6af7 a5bc f0b4 aa3f 79e8 83bd 341a 51be
00000020: 9b5e 8abb df7c c5bc 3ee8 abbe f29d 53be
00000030: b74c 54be bfcd b63c 9f25 afbd 9763 cdbc
00000040: 8b0d a6bc 8b2a 63be dde1 c1b9 e561 3fbe
00000050: 9c5e a4be 6ae3 813d 7e9f 02bd 3b41 eebd
00000060: db98 463e ee24 efbd 5422 adbd 96e4 82bd
00000070: a790 99bd fbc6 17bd 955a 3dbc f9e8 003f
00000080: e6f4 12bd 1c67 08be 7e3e 573e 4c56 09be
00000090: 7c63 7abd 24cd 5fbd 2a9a c7bd 8afd 54bd
000000a0: 49d9 32bb 0c02 ecbc 3c44 ecbe ebdf 0dbf
000000b0: a3df 23bd 83d0 88bd 633b babc 28c1 3cbd
000000c0: 2bdd 7bbe 9373 2a3e 8a84 03bf a9e8 07bc
000000d0: 91d3 3ebe c466 afbd b417 21bf 75a7 12bd
000000e0: 84d0 9abe 9ae5 2fbe 4929 81bd fe3f 94bd
000000f0: f880 28bd 82c3 0bbf e8a7 dcbd 1d20 08be
00000100: 34e0 45be 12bf a8bc 9bc7 47be ae6b c2bc
00000110: 7786 3cbd 20e9 e6bd ee34 e33e 7aae 80bd
00000120: 1b8f c03d 6a1b 28be 4488 00bd 2482 67bd
00000130: 83e4 26bc 744a 0bbe 2769 563e 6e95 3ebc
00000140: ad4a 11be 0307 81bc 9a30 36be 77d0 ad3c
00000150: 9f8b ab3f 5a86 d93e f5e0 d4bd 7f87 94be
00000160: f941 69bd e18d a7bd 8bb1 54bd 3620 8cbd
00000170: e740 e8bb 29a7 8fbc d35b 0c3e d588 3abe
00000180: 3ae2 f4bc afa6 903f 3144 9fba f05f 9fbd
00000190: 3d61 95bc 232a 593f 0a6a 873e 1889 5bbe
000001a0: 0bc8 acbe 16e0 fcbd aff3 bc3f f7e2 84bd
000001b0: 2339 0ebd 6ad5 7bbd 6cf6 d7be 82c5 32be
000001c0: fe8a 07be 8557 293e 6cf6 b8bd 6f2b 99be
000001d0: 442f 023f 0df7 a7bb 1ed8 20be eaa5 f4bc
000001e0: 789a d5bc aef5 c3bc dff7 02bf db07 1cbc
000001f0: bbaa 843f 776b b1bd a8a6 7fbd e30e 8fbe

layers.4.weight f4 [2, 128]
0.018153396 -0.010133494 0.024880389 -0.015234324 -0.0031261821 0.020765739 0.003067553 0.020692432
0.012470143 0.0066518686 -0.017514372 -0.0016979502 -0.003390504 0.05079529 0.016655141 -0.021190269
0.019956643 -0.0039231917 0.0029559063 0.062079493 0.03182242 0.03226884 0.06745893 0.02767729
-0.012120222 0.0357677 0.0066058324 -0.018791286 0.0027218645 -0.018394196 -0.029001825 -0.020972406
0.009200942 -0.032257177 -0.016793583 0.005040587 0.031933416 -0.006707766 0.018248428 0.088749595
0.0035605493 -0.012061444 -0.006828253 -0.0012005105 0.011545307 -0.004402025 -0.012803869 0.0023375307
0.0031241698 -0.0063899797 -0.02777692 -0.0071154847 0.015488941 -0.008779817 0.008436427 -0.0024390828
-0.014634762 0.0204067 0.040949494 0.015862089 -0.005238153 -0.006635429 0.037248753 -0.0042455904
-0.01851112 -0.021615446 -0.02494328 0.020419678 0.015533961 0.05613573 -0.02928366 0.036571383
0.001491444 0.010198316 0.0042506754 -0.025060266 0.031407002 0.0028780284 0.04225763 0.026971813
0.0009868258 0.029945672 -0.0020923226 0.019728238 0.002442111 -0.09551069 -0.018978294 0.034219075
0.0008002296 0.028294556 0.022773497 0.00045729885 0.035477277 -0.012958321 0.010398974 0.0083753
-0.0070349444 0.058691055 0.031724904 0.03116393 0.009139309 0.008194818 -0.022158058 -0.06803545
-0.01582258 0.0058918144 0.024254574 -0.0027971792 -0.011071209 -0.02063638 -0.030111166 -0.0017355485
0.0152444495 0.037558414 -0.015452419 0.0025173365 -0.008148757 0.036449872 0.015466281 0.0072659794
-0.026596725 0.012756346 -0.0019768758 0.0097808745 -0.035957366 0.0029374522 -0.012321486 -0.01046767
-0.043459002 -0.0055971635 -0.044948235 -0.0019077912 -0.012651992 -0.04120081 -0.002792072 0.019741688
0.032596875 0.027989054 -0.03718268 0.02441847 -0.05825085 -0.013421826 0.006998543 -0.017868571
-0.06660475 -0.0025176718 0.001771759 0.013592782 -0.05772544 0.040202253 -0.00788843 0.007279709
-0.00912389 -0.017031012 0.013765349 0.031544484 -0.0032475223 0.050964948 0.006335256 0.17699575
0.009842817 -0.014645499 -0.004724885 0.0069520096 -0.05549089 -0.016179988 0.007171494 -0.039989594
-0.0057320716 0.021075204 0.047869068 -0.10694575 -0.025411438 -0.0073064617 -0.016718829 0.048138797
0.007907211 -0.015006287 0.010765649 -0.026557624 -0.052508574 -0.015841832 -0.11322536 0.000772642
-0.03623554 -0.01619281 -0.05182722 -0.02660141 0.01786127 -0.0065913443 -0.009397751 -0.02709681
-0.015429168 0.0049363654 -0.002678632 -0.030261774 -0.024570968 0.027037164 0.039343588 -0.0098114405
-0.0014564174 -0.009537352 -0.065749414 0.0008672717 -0.017776074 -0.0079790475 0.07177967 0.0118916035
-0.019983951 0.0024327065 0.018682959 0.011847397 0.022413932 0.018641965 -0.022817751 -0.05552493
-0.038894907 -0.016786486 0.04988755 -0.0033462793 0.029140228 0.0123908315 -0.0054489984 -0.022715893
0.05178137 -0.010258025 -0.041226067 -0.021239612 0.0028536166 0.008942976 -0.015043789 0.0042906413
0.033750746 0.030657593 0.0007767909 -0.023842923 -0.024723215 -0.0023034997 -0.061015207 0.012827745
-0.013604513 0.01529001 -0.02624605 -0.017891075 0.03683679 0.011257228 0.041233785 0.043973114
0.031734925 -0.08188323 -0.021051249 -0.023418376 -0.007096041 0.019588202 -0.012508935 0.012428244
00000000: 6eb6 943c f406 26bc f5d1 cb3c 6399 79bc
00000010: a2e0 4cbb e91c aa3c 0009 493b 2d83 a93c
00000020: 924f 4c3c ebf7 d93b 4d7a 8fbc c18d deba
00000030: 3833 5ebb b90e 503d 5d70 883c 3797 adbc
00000040: 1d7c a33c 1e8e 80bb e1b7 413b 1147 7e3d
00000050: 3a58 023d 552c 043d e827 8a3d 7cbb e23c
00000060: e593 46bc 2781 123d bd75 d83b 2ff0 99bc
00000070: 4f61 323b 6daf 96bc 3c95 edbc 53ce abbc
00000080: 8cbf 163c 1a20 04bd b292 89bc 822b a53b
00000090: 9dcc 023d d2cc dbbb ba7d 953c 59c2 b53d
000000a0: 1b58 693b 5d9d 45bc 8abf dfbb 735a 9dba
000000b0: 8728 3d3c dd3e 90bb 52c7 51bc 4231 193b
000000c0: dfbe 4c3b 0963 d1bb 6c8c e3bc 0329 e9bb
000000d0: 54c5 7d3c 39d9 0fbc f138 0a3c 05d9 1fbb
000000e0: a4c6 6fbc f42b a73c a8ba 273d 36f1 813c
000000f0: d0a4 abbb 036e d9bb 2692 183d 981e 8bbb
00000100: a2a4 97bc e012 b1bc d955 ccbc 2b47 a73c
00000110: 2882 7e3c 94ee 653d 49e4 efbc e0cb 153d
00000120: 8e7c c33a d616 273c 4049 8b3b 304b cdbc
00000130: a1a4 003d 4e9d 3c3b 5616 2d3d fef3 dc3c
00000140: 6158 813a a050 f53c 591f 09bb 1d9d a13c
00000150: d30b 203b 1c9b c3bd 5e78 9bbc 4d29 0c3d
00000160: 80c6 513a fcc9 e73c 7c8f ba3c 9dc1 ef39
00000170: 9f50 113d 234f 54bc 7560 2a3c 8e38 093c
00000180: 6485 e6bb 0866 703d f9f1 013d 804b ff3c
00000190: 0abd 153c 8f43 063c d184 b5bc 2c56 8bbd
000001a0: 5b9e 81bc 1f10 c13b 87b1 c63c e150 37bb
000001b0: 0464 35bc a00d a9bc b1ab f6bc 587b e3ba
000001c0: dbc3 793c dad6 193d 252c 7dbc e6f9 243b
000001d0: 5d82 05bc 764c 153d 4966 7d3c 7417 ee3b
000001e0: 60e1 d9bc feff 503c 798e 01bb f63f 203c
000001f0: 0848 13bd 4582 403b 0fe0 49bc 9780 2bbc
00000200: 1102 32bd 6968 b7bb a41b 38bd da0e faba
00000210: 4d4a 4fbc 2ec2 28bd 32fb 36bb 52b9 a13c
00000220: 4d84 053d 4d49 e53c de4c 18bd 3e09 c83c
00000230: 7198 6ebd 38e7 5bbc 0954 e53b 1c61 92bc
00000240: 1268 88bd 86ff 24bb 5e3a e83a 43b4 5e3c
00000250: 8371 6cbd 1eab 243d 793e 01bc a08a ee3b
00000260: 5e7c 15bc 9f84 8bbc 0f88 613c ca34 013d
00000270: 62d4 54bb 9fc0 503d fb97 cf3b 603e 353e
00000280: c443 213c adf3 6fbc 35d3 9abb afcd e33b
00000290: 6a4a 63bd e58b 84bc dafe ea3b 21cc 23bd
000002a0: 1ad4 bbbb e8a5 ac3c 5b12 443d 6006 dbbd
000002b0: a62b d0bc 0b6b efbb edf5 88bc 302d 453d
000002c0: 3f8d 013c eedc 75bc 6862 303c 608f d9bc
000002d0: 3b13 57bd bbc6 81bc b3e2 e7bd 208b 4a3a
000002e0: b86b 14bd c9a6 84bc c748 54bd 33eb d9bc
000002f0: cc51 923c 34fc d7bb 06f9 19bc 21fa ddbc
00000300: 9fca 7cbc 3cc1 a13b fd8b 2fbb 8ae7 f7bc
00000310: 0e49 c9bc 0b7d dd3c be26 213d 2ac0 20bc
00000320: 42e5 beba 8e42 1cbc a1a7 86bd 9e59 633a
00000330: 219f 91bc 8dba 02bc 3801 933d 00d5 423c
00000340: 62b5 a3bc 0b6e 1f3b 010d 993c 961b 423c
00000350: 6c9d b73c 09b7 983c 4bec babc 1c6e 63bd
00000360: 4450 1fbd d083 89bc e356 4c3d 404d 5bbb
00000370: 7db7 ee3c ea02 4b3c 838d b2bb ae16 babc
00000380: b418 543d 4611 28bc aadc 28bd b2fe adbc
00000390: be03 3b3b 8f85 123c 397a 76bc 8298 8c3b
000003a0: 393e 0a3d a225 fb3c 8ea1 4b3a 3c52 c3bc
000003b0: 5788 cabc 50f6 16bb 15eb 79bd 762b 523c
000003c0: 77e5 5ebc f382 7a3c f501 d7bc 4e90 92bc
000003d0: 2de2 163d 3d70 383c c2e4 283d 271d 343d
000003e0: 7bfc 013d 65b2 a7bd ab73 acbc e5d7 bfbc
000003f0: e885 e8bb 7077 a03c 47f2 4cbc d59f 4b3c

layers.4.bias f4 [2]
1.734492 0.3768088
00000000: d503 de3f 15ed c03e
