baselines/supervised/pretrained/model.pth (torch, 37775 bytes, 8 tensors)

conv1.lin_rel.weight f4 [64, 3]
0	0x000001cf	6.49e-43
1	0xaf91955e	-2.6481478e-10
2	0x000002b9	9.77e-43
3	0xb314d2c8	-3.465064e-08
4	0xb734d78d	-1.0779023e-05
5	0xb43082d0	-1.6438867e-07
6	0x36431f49	2.9075475e-06
7	0xb8c207b3	-9.252075e-05
8	0xb65da6cd	-3.3028657e-06
9	0xba237424	-0.0006235263
10	0xbb0d0f99	-0.002152419
11	0xba4b5bf7	-0.0007757539
12	0x386a14f4	5.580946e-05
13	0xbca48420	-0.020082533
14	0x3b2a2dc0	0.002596721
15	0x30a7e4a2	1.2215831e-09
16	0xb66ab90d	-3.497643e-06
17	0x348258f7	2.4279117e-07
18	0x98aa9e83	-4.4104026e-24
19	0x9b6b2a0f	-1.9452334e-22
20	0x1a0d2604	2.9188825e-23
21	0xaff33737	-4.4240675e-10
22	0xb2badc7e	-2.1753518e-08
23	0xaf95f06c	-2.7273772e-10
24	0x2f3209fa	1.619255e-10
25	0xbc6e8e9c	-0.014560368
26	0xb43e36c6	-1.7715055e-07
27	0x3185a5ca	3.8896575e-09
28	0xb73c6393	-1.1228857e-05
29	0xb22868ee	-9.802745e-09
30	0x96b5474b	-2.928712e-25
31	0xba4ac623	-0.0007735213
32	0x167d080e	2.0439719e-25
33	0x1da8bab3	4.4662272e-21
34	0xb2087751	-7.943371e-09
35	0x9d32e925	-2.3678637e-21
36	0x0000012b	4.19e-43
37	0xb7dbae4c	-2.6187998e-05
38	0x0000010d	3.77e-43
39	0xbe2b8fe0	-0.16754103
40	0x3d1ce8fd	0.038308132
41	0x3ead01e6	0.3379051
42	0x87480903	-1.5048976e-34
43	0xba06d850	-0.00051439274
44	0x07689f42	1.7500542e-34
45	0x3ada2754	0.0016643801
46	0xbd2c530d	-0.04207139
47	0x3a7b4c01	0.00095862156
48	0x360b7dca	2.0785833e-06
49	0xb78c4cc3	-1.6725045e-05
50	0xb83ec524	-4.548313e-05
51	0xb0aec85f	-1.2717115e-09
52	0xb308c428	-3.184337e-08
53	0x30ac7d5e	1.2550279e-09
54	0x36669184	3.4357372e-06
55	0xb960b259	-0.00021428744
56	0x361567ba	2.2263107e-06
57	0x8000044b	-1.54e-42
58	0xadcf29bc	-2.355171e-11
59	0x00000367	1.22e-42
60	0x2ca718a2	4.7491603e-12
61	0xbc6a95a9	-0.014317908
62	0xad0109ba	-7.334961e-12
63	0x80000122	-4.06e-43
64	0xb013b39e	-5.373354e-10
65	0x000001d3	6.54e-43
66	0x0000005a	1.26e-43
67	0xab82268a	-9.247752e-13
68	0x800003a9	-1.313e-42
69	0x2e86aec8	6.124662e-11
70	0xb2ee7258	-2.7758844e-08
71	0xae8fcd25	-6.539328e-11
72	0x800001f5	-7.02e-43
73	0x9cbfe5d5	-1.269873e-21
74	0x00000065	1.42e-43
75	0x000004a9	1.672e-42
76	0xa50cca6e	-1.221165e-16
77	0x8000007d	-1.75e-43
78	0x3aba8afe	0.0014232097
79	0x3c3764c8	0.011193462
80	0x3f1aa589	0.60408837
81	0x800002fd	-1.072e-42
82	0xb8018f31	-3.0889354e-05
83	0x000001ed	6.91e-43
84	0x000001f8	7.06e-43
85	0xb82cc7e5	-4.1194162e-05
86	0x00000306	1.085e-42
87	0x0a5769e3	1.03717885e-32
88	0xb4507072	-1.9412417e-07
89	0x0a1341f8	7.0902e-33
90	0x00000389	1.268e-42
91	0xb631636d	-2.6432929e-06
92	0x0000013d	4.44e-43
93	0x3b9cd742	0.004786403
94	0xbc0139ca	-0.007887313
95	0x3c49daf9	0.012320274
96	0x3e9d48bf	0.30719563
97	0x3c684ac3	0.014177981
98	0xbf11d007	-0.5695805
99	0xbcef23ec	-0.029191934
100	0xbe420a1d	-0.1894917
101	0xbdb428a5	-0.08796815
102	0x80000037	-7.7e-44
103	0xaa8444d3	-2.3495667e-13
104	0x8000041e	-1.477e-42
105	0x30ebca18	1.7155939e-09
106	0xb9812ee2	-0.00024639728
107	0x0000000d	1.8e-44
108	0xb41b1139	-1.4441765e-07
109	0xb3c91929	-9.3643685e-08
110	0xb4238a99	-1.523098e-07
111	0xad13bfba	-8.398554e-12
112	0xaf4a3f6c	-1.8394325e-10
113	0xad74341c	-1.3881365e-11
114	0xb95da508	-0.00021137681
115	0xbaa20157	-0.0012360018
116	0xb9a0954d	-0.00030628816
117	0x800005be	-2.06e-42
118	0xb3d80098	-1.0058392e-07
119	0x0000039c	1.295e-42
120	0x3d671903	0.056420337
121	0x3d04d700	0.032431602
122	0xbe2f268a	-0.17104545
123	0x302a8779	6.203816e-10
124	0xb181d517	-3.7786196e-09
125	0x300965c5	4.9984933e-10
126	0x800000f7	-3.46e-43
127	0xba0699ac	-0.0005134593
128	0x000003d3	1.372e-42
129	0x800000d8	-3.03e-43
130	0xaec0c6b3	-8.766445e-11
131	0x00000394	1.284e-42
132	0x00626e03	9.039343e-39
133	0xa17430a7	-8.2734806e-19
134	0x8030b92f	-4.474535e-39
135	0x9adeaa9c	-9.209268e-23
136	0xb9012a1c	-0.00012318086
137	0x1b8cd14c	2.3296312e-22
138	0x30e80d58	1.6884014e-09
139	0xb32d258e	-4.0313857e-08
140	0xb22ada6b	-9.944965e-09
141	0xace487b5	-6.4952163e-12
142	0xae2b9337	-3.901165e-11
143	0xadd0c59b	-2.3734617e-11
144	0x80000726	-2.564e-42
145	0x9711ac20	-4.706928e-25
146	0x00000502	1.796e-42
147	0xadc834e8	-2.2760863e-11
148	0xba60e9b2	-0.0008579745
149	0x2db3f6c4	2.045953e-11
150	0x9d426189	-2.572611e-21
151	0xbc4b0a91	-0.012392656
152	0x1deabc91	6.2134257e-21
153	0xad3f1f2d	-1.0864015e-11
154	0xb0994807	-1.1152687e-09
155	0xadb6c612	-2.0778965e-11
156	0xb3919b90	-6.780385e-08
157	0xbd71b136	-0.059006892
158	0x331fff40	3.725222e-08
159	0x0000027d	8.93e-43
160	0xb82c3914	-4.1061154e-05
161	0x80000017	-3.2e-44
162	0x000001da	6.64e-43
163	0xaf07d8e9	-1.235524e-10
164	0x8000026f	-8.73e-43
165	0x1f863980	5.6846333e-20
166	0xb455b8cc	-1.99044e-07
167	0x80000479	-1.604e-42
168	0xafc9eee8	-3.673144e-10
169	0xb06495a7	-8.3158586e-10
170	0x2fa42285	2.9855954e-10
171	0x394849fb	0.00019101046
172	0xbc100608	-0.0087905
173	0xb646db2e	-2.9631879e-06
174	0xa80961f9	-7.626272e-15
175	0xaa1ef2b5	-1.4117425e-13
176	0xa88decb2	-1.5756795e-14
177	0xa51f9e65	-1.3844718e-16
178	0xae85822d	-6.0712636e-11
179	0x2b1f1cef	5.65283e-13
180	0xb10629f6	-1.9523418e-09
181	0xb912a89d	-0.00013986458
182	0xb1353269	-2.6367621e-09
183	0x95fddcfc	-1.0253454e-25
184	0xb6642ca5	-3.4000634e-06
185	0x9435d1e2	-9.179557e-27
186	0x338536c8	6.20326e-08
187	0x35ad53a3	1.2913846e-06
188	0x35372bbe	6.8236466e-07
189	0x8b9fce54	-6.155502e-32
190	0xac4b90e4	-2.8928466e-12
191	0x00000506	1.802e-42

conv1.lin_rel.bias f4 [64]
0	0x80000403	-1.439e-42
1	0xb4549428	-1.9797938e-07
2	0x36a0ac0d	4.788401e-06
3	0xbabb4030	-0.0014286097
4	0x3b8edec4	0.004360052
5	0xb3fdbfce	-1.18161196e-07
6	0x996b9a3d	-1.21803634e-23
7	0x31837812	3.826252e-09
8	0x376ba51d	1.4045535e-05
9	0x322fa87d	1.02246505e-08
10	0x98cace7f	-5.2424284e-24
11	0x1e3f3766	1.0122912e-20
12	0x80000210	-7.4e-43
13	0xbe0838e8	-0.13302958
14	0x87f931c8	-3.7494615e-34
15	0xbb8c6053	-0.0042839437
16	0xb8765849	-5.8733192e-05
17	0x312a7bcf	2.4808633e-09
18	0xb4dc2a98	-4.1009184e-07
19	0x800000b8	-2.58e-43
20	0x2c83364d	3.7292725e-12
21	0x80000029	-5.7e-44
22	0x000004a5	1.666e-42
23	0xae91c278	-6.628381e-11
24	0x800000ab	-2.4e-43
25	0x000003b8	1.334e-42
26	0xbdac45ca	-0.08411749
27	0x800000c0	-2.69e-43
28	0x00000253	8.34e-43
29	0x8abdc083	-1.8272453e-32
30	0x00000328	1.132e-42
31	0x3c938738	0.018008813
32	0x3f1e4690	0.6182642
33	0xbdf2669a	-0.11835976
34	0x80000410	-1.457e-42
35	0xaee653b6	-1.0474059e-10
36	0xb3b07ef3	-8.2187306e-08
37	0x2d5ea658	1.2656175e-11
38	0x391e5ea3	0.00015103309
39	0x8000045e	-1.567e-42
40	0x3e0bccb7	0.13652311
41	0xae36beef	-4.1551592e-11
42	0x800001ce	-6.47e-43
43	0x80000375	-1.24e-42
44	0x800e73ba	-1.327212e-39
45	0x19f7e9bb	2.5633604e-23
46	0xb0b36d9f	-1.305512e-09
47	0xae0618ae	-3.0489992e-11
48	0x00000452	1.55e-42
49	0x2d2af025	9.716704e-12
50	0x9d0f377f	-1.8954583e-21
51	0xaf37bd9c	-1.6711116e-10
52	0x33d59b6a	9.946855e-08
53	0x00000264	8.58e-43
54	0x00000377	1.243e-42
55	0x9efb5180	-2.6609366e-20
56	0xaedd9eae	-1.00781036e-10
57	0xb9e11a3d	-0.00042934893
58	0x28af99b3	1.949556e-14
59	0xad687432	-1.3213474e-11
60	0xb10fbbb9	-2.0915947e-09
61	0x17273aff	5.4035074e-25
62	0x3572e763	9.048874e-07
63	0x0d0fb538	4.428341e-31

conv1.lin_root.weight f4 [64, 3]
0	0x000002c6	9.95e-43
1	0x962bfdf0	-1.3893399e-25
2	0x8000066f	-2.308e-42
3	0x32388921	1.0741389e-08
4	0xb51fde2a	-5.9555407e-07
5	0x314e515d	3.0023195e-09
6	0xa26b9923	-3.1929509e-18
7	0xb9698ded	-0.00022273483
8	0x36c6a164	5.919648e-06
9	0x373f7cd9	1.14135555e-05
10	0xbbf11122	-0.0073567787
11	0x38054489	3.17735e-05
12	0x35e47177	1.7020346e-06
13	0xbd3e91af	-0.046525653
14	0x3b1e96aa	0.002419869
15	0x36b5ca24	5.4177526e-06
16	0xb0318622	-6.458284e-10
17	0x2322b968	8.821299e-18
18	0x99f655df	-2.5470487e-23
19	0x9aa780d3	-6.927771e-23
20	0x97dec6a6	-1.439656e-24
21	0x9b8750fe	-2.2386217e-22
22	0xb2f0893f	-2.800209e-08
23	0xaf961c1a	-2.7304808e-10
24	0x8bf34fdc	-9.3720354e-32
25	0xbc4dc700	-0.012559652
26	0x36bce8ac	5.629923e-06
27	0x000006dc	2.46e-42
28	0x3288fb0d	1.5946648e-08
29	0x320b085f	8.092768e-09
30	0x180150d8	1.6713675e-24
31	0xb98918e1	-0.00026149212
32	0x958acc1c	-5.6059784e-26
33	0x1c0a9cf6	4.5863237e-22
34	0xb1b700b3	-5.3260805e-09
35	0x9c9d5943	-1.0412462e-21
36	0x000006ed	2.485e-42
37	0xb3fb142d	-1.1691768e-07
38	0x8000061c	-2.192e-42
39	0x3e1c12eb	0.15241592
40	0xbcd4c550	-0.025972992
41	0xbd89b301	-0.067235954
42	0x047bd28d	2.9601588e-36
43	0xb57cbb07	-9.4149476e-07
44	0x871a5e5b	-1.1613401e-34
45	0x38bbd50c	8.956538e-05
46	0xbcdffb68	-0.02734156
47	0xb9230c7c	-0.00015549542
48	0x383867dd	4.396575e-05
49	0xb857d13a	-5.1454852e-05
50	0xb5387d15	-6.872736e-07
51	0x30f22f6e	1.7621298e-09
52	0xb3147a3d	-3.457011e-08
53	0xb15f9cfd	-3.2540008e-09
54	0x31cf6ce0	6.0368706e-09
55	0xb8c3266e	-9.305483e-05
56	0x327f7f1f	1.48718575e-08
57	0x80000573	-1.955e-42
58	0xa4cd5b1a	-8.905891e-17
59	0x800005b4	-2.046e-42
60	0xab574ae9	-7.6487303e-13
61	0xbb359075	-0.0027704511
62	0xacae4fc8	-4.954235e-12
63	0x000007b4	2.763e-42
64	0xa88f6e00	-1.5923894e-14
65	0x80000355	-1.195e-42
66	0x80000416	-1.466e-42
67	0xabe00028	-1.5916201e-12
68	0x000000cb	2.84e-43
69	0x25cba41d	3.5326094e-16
70	0xb0a9dfb8	-1.2359953e-09
71	0x2c21339b	2.2908123e-12
72	0x800008a9	-3.107e-42
73	0x9a3f5dd9	-3.9573684e-23
74	0x8000078f	-2.712e-42
75	0x00000112	3.84e-43
76	0xa0a3ca16	-2.7747003e-19
77	0x00001011	5.764e-42
78	0xbecd5b73	-0.40108833
79	0xbad500af	-0.0016250814
80	0x3fb47476	1.4098041
81	0x800004a2	-1.662e-42
82	0xb57e9711	-9.4842204e-07
83	0x800003ac	-1.317e-42
84	0x8000006a	-1.49e-43
85	0xb40c1167	-1.3044847e-07
86	0x80000437	-1.512e-42
87	0x09b4fbbc	4.3570154e-33
88	0xae0dbf79	-3.222975e-11
89	0x09b40432	4.333737e-33
90	0x00000297	9.29e-43
91	0xaf52e4f1	-1.9180725e-10
92	0x000007e4	2.83e-42
93	0xb8e217dd	-0.00010780965
94	0xb9959bbf	-0.00028535535
95	0x3ba98d84	0.0051743407
96	0xbc911f20	-0.017715037
97	0x3ba0d9b6	0.0049087657
98	0x3ed0a3bf	0.40749928
99	0xbcb209fe	-0.02173328
100	0xbe61f166	-0.22064742
101	0x3c836da3	0.01604349
102	0x80000677	-2.319e-42
103	0x97e20b3f	-1.4607747e-24
104	0x00000256	8.38e-43
105	0x00001b42	9.778e-42
106	0x35246520	6.1241917e-07
107	0x2fce741b	3.755368e-10
108	0x34257085	1.5407757e-07
109	0xb3ac339e	-8.018763e-08
110	0xb454f1d4	-1.9832015e-07
111	0x2e21b7a0	3.6770254e-11
112	0xae3f16ae	-4.3448516e-11
113	0x2b1cabd9	5.566082e-13
114	0x35b5dca3	1.3549765e-06
115	0xbad52564	-0.0016261754
116	0x35b78f78	1.3676317e-06
117	0x800002ce	-1.006e-42
118	0xaf0223dc	-1.1836171e-10
119	0x8000044d	-1.543e-42
120	0x3cac0aee	0.021001305
121	0x3e1d31d9	0.15351047
122	0xbe2237e1	-0.15841629
123	0x2d1edfc5	9.030947e-12
124	0xb1487388	-2.9169502e-09
125	0x2ed2416a	9.561314e-11
126	0x000001c1	6.29e-43
127	0xb492cf8a	-2.7345624e-07
128	0x00005363	2.9914e-41
129	0x000004cc	1.721e-42
130	0xad3c531b	-1.0705016e-11
131	0x0000010a	3.73e-43
132	0x0005fc5d	5.49708e-40
133	0xaed9bbd6	-9.901384e-11
134	0x804d7121	-7.111916e-39
135	0x999499e6	-1.5365e-23
136	0xafc71b06	-3.621709e-10
137	0x18b88d0b	4.7705302e-24
138	0x330eb4b8	3.3226314e-08
139	0xb3994204	-7.136626e-08
140	0x30730e0f	8.8422863e-10
141	0x27bae991	5.1878604e-15
142	0xaec4c35d	-8.9477516e-11
143	0xad578eff	-1.22530866e-11
144	0x000019d3	9.264e-42
145	0x95c469b9	-7.933057e-26
146	0x8000022a	-7.76e-43
147	0xacaff6d1	-5.0012013e-12
148	0xb79edc52	-1.8937662e-05
149	0x2c59c6b6	3.0947861e-12
150	0x9c17924d	-5.01508e-22
151	0xbb8b1dc2	-0.0042454908
152	0x9d6e7552	-3.155969e-21
153	0x2f43ca21	1.7806957e-10
154	0xae123532	-3.3243804e-11
155	0x2b33381b	6.3671437e-13
156	0xb2849d13	-1.5438252e-08
157	0xbd18c1db	-0.03729425
158	0x31fb064d	7.3057778e-09
159	0x800003e9	-1.403e-42
160	0xb46140f3	-2.0978386e-07
161	0x8000004f	-1.11e-43
162	0x00000237	7.95e-43
163	0xa7ade7fc	-4.8268664e-15
164	0x00000427	1.49e-42
165	0x80000204	-7.23e-43
166	0xa0a02a7d	-2.713317e-19
167	0x1f268c57	3.5267954e-20
168	0xae372526	-4.1642377e-11
169	0xb1c1fa6a	-5.645508e-09
170	0x2f0d893f	1.2872635e-10
171	0x99fc6a8e	-2.6099226e-23
172	0x392c3f87	0.00016426864
173	0x390b5cb0	0.00013290602
174	0xa95e42af	-4.935174e-14
175	0xa807512d	-7.511608e-15
176	0xa5d8bee4	-3.759938e-16
177	0xadd5eedd	-2.4321373e-11
178	0x26a1c9b4	1.1226291e-15
179	0x2601c19f	4.501827e-16
180	0x2fa5c15a	3.015071e-10
181	0xb888515b	-6.500139e-05
182	0xabcf17ed	-1.4714875e-12
183	0x9452f6fe	-1.0651001e-26
184	0xb504770c	-4.934707e-07
185	0x1632e02a	1.4449459e-25
186	0x35529a32	7.845548e-07
187	0xb4ebeb87	-4.394353e-07
188	0xb4b53556	-3.3752684e-07
189	0x00000135	4.33e-43
190	0x0f2349ec	8.050757e-30
191	0x8d83ea56	-8.129913e-31

conv2.lin_rel.weight f4 [64, 64]
0	0x800002d5	-1.016e-42
1	0x00002be7	1.5749e-41
2	0x176769f1	7.477384e-25
3	0x9b69b58a	-1.9331967e-22
4	0x2ad349e2	3.7532396e-13
5	0x9759fd73	-7.043638e-25
6	0x0ab0e5e5	1.703466e-32
7	0x263d57c6	6.56915e-16
8	0x878fb047	-2.1619855e-34
9	0xa294ddd8	-4.0350367e-18
10	0x145bb53c	1.1092417e-26
11	0x8d5f155b	-6.8742886e-31
12	0x00000fd6	5.681e-42
13	0x3184ec4c	3.8685695e-09
14	0x048d5583	3.322747e-36
15	0x2ebfa8a0	8.715628e-11
16	0xb4cce450	-3.816408e-07
17	0x9f689432	-4.9250495e-20
18	0x8000019d	-5.79e-43
19	0x80000378	-1.244e-42
20	0xb81fc970	-3.8096157e-05
21	0x00000552	1.909e-42
22	0x800005fa	-2.144e-42
23	0x9044d86c	-3.882091e-29
24	0x0000001b	3.8e-44
25	0x000006bd	2.417e-42
26	0xb2bbb9cf	-2.1854161e-08
27	0x80000495	-1.644e-42
28	0x00000546	1.892e-42
29	0x888d06dd	-8.487742e-34
30	0x399e8f15	0.00030242713
31	0x2ef48fb7	1.1121364e-10
32	0xb15bd122	-3.1987573e-09
33	0xb357bd04	-5.0230497e-08
34	0x800002d2	-1.012e-42
35	0xa1848c51	-8.981809e-19
36	0x233a0625	1.0084381e-17
37	0x9f76d623	-5.2269656e-20
38	0x2b9a122b	1.0947401e-12
39	0x80000c14	-4.333e-42
40	0xb2f3b18c	-2.8369662e-08
41	0x9f5d7fa9	-4.6904168e-20
42	0x0000014d	4.67e-43
43	0x00000089	1.92e-43
44	0x38741a37	5.8198548e-05
45	0x11e33082	3.584418e-28
46	0xa595662f	-2.5916622e-16
47	0x0c7a5ea0	1.9287775e-31
48	0x2bc0ba4b	1.3694127e-12
49	0x17c7a97a	1.2902855e-24
50	0x1830e1ea	2.2861524e-24
51	0x1022626f	3.2024697e-29
52	0x9e6ad40b	-1.2431706e-20
53	0x000001ad	6.01e-43
54	0x0000040b	1.45e-42
55	0x0080b88e	1.1821149e-38
56	0xb88753a8	-6.452884e-05
57	0xade98816	-2.6549467e-11
58	0x0bd6259d	8.2486396e-32
59	0x1b39d1ea	1.5370668e-22
60	0x1e235b0a	8.6479746e-21
61	0x8dd56a35	-1.3152707e-30
62	0x14077328	6.838469e-27
63	0x800430c6	-3.84839e-40
64	0x000003b1	1.324e-42
65	0x24833077	5.6894296e-17
66	0x1f861023	5.6777903e-20
67	0xae7655d2	-5.6010148e-11
68	0x38b3020c	8.5357664e-05
69	0x175ee6a2	7.202317e-25
70	0x0d320247	5.4853226e-31
71	0x27a2a697	4.514465e-15
72	0x00007607	4.234e-41
73	0x25a1eb18	2.8088354e-16
74	0x931e4d71	-1.9980585e-27
75	0x0549513a	9.4658935e-36
76	0x80000484	-1.62e-42
77	0xb3b6e5bc	-8.516824e-08
78	0x000008f5	3.213e-42
79	0x2fd3113f	3.839293e-10
80	0xb55b7e4c	-8.1767644e-07
81	0x233cf9db	1.0244409e-17
82	0x97000253	-4.1361964e-25
83	0x1d26f8e5	2.2098593e-21
84	0xb5cc52ac	-1.5223245e-06
85	0x93b8667d	-4.654919e-27
86	0x000000c7	2.79e-43
87	0xa18ba32b	-9.462197e-19
88	0x86939214	-5.5509897e-35
89	0x8000003a	-8.1e-44
90	0x3685941f	3.9809524e-06
91	0x0000017a	5.3e-43
92	0x80000033	-7.1e-44
93	0x80000666	-2.295e-42
94	0x0000222e	1.2261e-41
95	0x32eebc01	2.779234e-08
96	0xb420c613	-1.497322e-07
97	0x32a5482c	1.9241348e-08
98	0x89b0b014	-4.2536042e-33
99	0x26518c07	7.2701214e-16
100	0xad28361b	-9.561708e-12
101	0x9f8cf283	-5.969351e-20
102	0x2c314ffe	2.5197617e-12
103	0x80000c35	-4.379e-42
104	0xb4b2b823	-3.328906e-07
105	0x23c40746	2.1253443e-17
106	0x00000034	7.3e-44
107	0x998db62c	-1.4652637e-23
108	0x80001e7e	-1.0939e-41
109	0x92663ffb	-7.2654065e-28
110	0xa5862d83	-2.3276135e-16
111	0xa1b9544a	-1.2558399e-18
112	0x80000223	-7.67e-43
113	0x340d8e87	1.31835e-07
114	0x339bb2d3	7.250278e-08
115	0xa0656768	-1.9431269e-19
116	0xa609ecdc	-4.785243e-16
117	0x000002d7	1.019e-42
118	0xa0d2fabe	-3.574131e-19
119	0x88bb57b3	-1.1275271e-33
120	0x2b8991cc	9.774902e-13
121	0xaf279d35	-1.5244413e-10
122	0x1bb2f409	2.9605334e-22
123	0x1e258f16	8.764617e-21
124	0xa34b0bb9	-1.10071344e-17
125	0xb0bfe4ab	-1.396207e-09
126	0xaa5372c5	-1.8780383e-13
127	0x0176b4ec	4.531287e-38
128	0x8000039f	-1.299e-42
129	0xa56ba37d	-2.0438393e-16
130	0x9c6553b7	-7.5877943e-22
131	0x2f84f92e	2.4187713e-10
132	0x2cc06e6a	5.4692266e-12
133	0x9fb316d3	-7.584721e-20
134	0x0c15e766	1.1548176e-31
135	0xa6ce28e4	-1.4305205e-15
136	0x01448c74	3.6100285e-38
137	0x24550bb0	4.6196912e-17
138	0x3a363ee6	0.00069521216
139	0x91ba196e	-2.9361298e-28
140	0x800002db	-1.024e-42
141	0xb3a84c2f	-7.836967e-08
142	0x000006cd	2.44e-42
143	0xb14ab68e	-2.949864e-09
144	0x2ed22228	9.555762e-11
145	0x1e30f9cc	9.369019e-21
146	0x8f6b913a	-1.1614364e-29
147	0x991f7033	-8.242766e-24
148	0x9d60c0d8	-2.9745851e-21
149	0x0cb46cf1	2.7798958e-31
150	0x8000027e	-8.94e-43
151	0x22587be9	2.9339056e-18
152	0x010c9909	2.5823736e-38
153	0x000003e7	1.4e-42
154	0xb48d48a8	-2.631616e-07
155	0x000001e6	6.81e-43
156	0x8000029a	-9.33e-43
157	0x00000519	1.829e-42
158	0x8000132b	-6.876e-42
159	0xb24bf7a0	-1.1872459e-08
160	0xb3399f7c	-4.321872e-08
161	0xb16247a4	-3.2928051e-09
162	0x8467a945	-2.7231644e-36
163	0x2485685a	5.7856334e-17
164	0xacc503c4	-5.599495e-12
165	0x21a8e64d	1.1445083e-18
166	0xaeea8b41	-1.06658245e-10
167	0x80000124	-4.09e-43
168	0xb3ebf46d	-1.0987501e-07
169	0x9b82aee2	-2.1619711e-22
170	0x8000022c	-7.79e-43
171	0x1359c7d8	2.7487781e-27
172	0x80000ce5	-4.626e-42
173	0x13d96898	5.488164e-27
174	0xa668704a	-8.064335e-16
175	0x9eaa3cb9	-1.8024564e-20
176	0x0000057e	1.97e-42
177	0xb397e21b	-7.072614e-08
178	0x9182ed56	-2.0656653e-28
179	0xa194134f	-1.0033981e-18
180	0xa6f7085f	-1.7141337e-15
181	0x00000203	7.22e-43
182	0x9d70dc5e	-3.1877663e-21
183	0x88668cd2	-6.937864e-34
184	0xb63e65b1	-2.8371398e-06
185	0xaf7dbe1a	-2.3077754e-10
186	0x932ce4ef	-2.1822325e-27
187	0x1c9051ca	9.550263e-22
188	0xa243269e	-2.6447872e-18
189	0x334cae64	4.765606e-08
190	0xa8f51c32	-2.7212692e-14
191	0x001ee5d7	2.837516e-39
192	0x00000432	1.505e-42
193	0xac94c0f2	-4.2278342e-12
194	0x1ebd75c6	2.0059863e-20
195	0xb740808b	-1.14740205e-05
196	0xb0fec056	-1.8535598e-09
197	0x3048f0e8	7.3101925e-10
198	0x9167eb2d	-1.8295156e-28
199	0xac1f2b7a	-2.2619393e-12
200	0x00709524	1.0339077e-38
201	0x2ba8fe0b	1.2007629e-12
202	0x11c53c55	3.1118302e-28
203	0x1023933a	3.22595e-29
204	0x800005ab	-2.033e-42
205	0xb863a61b	-5.4275715e-05
206	0x80000b12	-3.971e-42
207	0xb0a0f780	-1.1711876e-09
208	0xb39b8e53	-7.2436386e-08
209	0x26c75b0e	1.3833079e-15
210	0x80000337	-1.153e-42
211	0x80000052	-1.15e-43
212	0xa6b9fd61	-1.2905632e-15
213	0x0000000d	1.8e-44
214	0x00000377	1.243e-42
215	0x26eb956c	1.6346902e-15
216	0x8000020c	-7.34e-43
217	0x80000020	-4.5e-44
218	0xb9a1cab7	-0.00030859347
219	0x80000776	-2.676e-42
220	0x80000263	-8.56e-43
221	0x0010caff	1.542189e-39
222	0xaf1d091c	-1.4282303e-10
223	0x352f7f46	6.537779e-07
224	0xb86c0625	-5.6272507e-05
225	0x38c08025	9.179142e-05
226	0x000000c3	2.73e-43
227	0xa9d51c0a	-9.463964e-14
228	0x3603a363	1.9615625e-06
229	0x26f5a9c8	1.7046309e-15
230	0x32acacc2	2.0101997e-08
231	0x0000063c	2.236e-42
232	0xb8d96e29	-0.00010367885
233	0x20422b16	1.6446695e-19
234	0x800001fd	-7.13e-43
235	0x80000309	-1.089e-42
236	0x000005ca	2.077e-42
237	0x1277f6d2	7.8243687e-28
238	0xab393746	-6.580191e-13
239	0xa7a97704	-4.703596e-15
240	0x80002dfb	-1.6495e-41
241	0x26af9f2d	1.2186209e-15
242	0x172814d8	5.4310036e-25
243	0x242cffe1	3.7513293e-17
244	0xaf214f08	-1.4670942e-10
245	0x000003f2	1.415e-42
246	0x000003c2	1.348e-42
247	0x8fa6926a	-1.642526e-29
248	0x3989a804	0.00026255858
249	0xb36f7ad9	-5.5758253e-08
250	0x16983d3f	2.4595576e-25
251	0xa1cf1203	-1.4031633e-18
252	0xaa5821ca	-1.9196377e-13
253	0x8d317eb0	-5.469483e-31
254	0xaccddd82	-5.8510427e-12
255	0x84f1ca7c	-5.684478e-36

conv2.lin_rel.bias f4 [64]
0	0xb2593c29	-1.2644741e-08
1	0xb57ea887	-9.4867613e-07
2	0x33ecf5b8	1.10343024e-07
3	0x38b63cbf	8.689751e-05
4	0xb0c85db6	-1.457855e-09
5	0x365a6959	3.2545852e-06
6	0xbbe52866	-0.0069933413
7	0xb3e03524	-1.0440479e-07
8	0x34deb2af	4.1480732e-07
9	0x3303c2cd	3.0677985e-08
10	0xb3b7deef	-8.562153e-08
11	0x39eb09ef	0.00044830094
12	0x35c1e70c	1.4446864e-06
13	0xb1e78361	-6.737921e-09
14	0xb74ada59	-1.2090976e-05
15	0x3807fb0e	3.242032e-05
16	0xb395bfa7	-6.9732145e-08
17	0x37c6b899	2.36894e-05
18	0x35ffc20a	1.9055453e-06
19	0xb3f32b12	-1.1323404e-07
20	0x3797ecca	1.8110866e-05
21	0x3288015e	1.5833105e-08
22	0x3c6e0b8d	0.014529121
23	0xba855e44	-0.0010175188
24	0xb44b9577	-1.8960223e-07
25	0xbb53f59d	-0.0032342442
26	0x31f3e804	7.098608e-09
27	0x37d2f394	2.5147376e-05
28	0x3603e754	1.9655172e-06
29	0xbbae5ae0	-0.0053208917
30	0x33861ced	6.245123e-08
31	0x3453ae92	1.9714415e-07
32	0xb37f992c	-5.9511123e-08
33	0xb20639ca	-7.812966e-09
34	0xabade722	-1.2356542e-12
35	0x0000015c	4.88e-43
36	0xb360d5f1	-5.2348643e-08
37	0xb146c47d	-2.8924483e-09
38	0x3baf6c20	0.0053534657
39	0xb0a6aa60	-1.2126513e-09
40	0x3106a864	1.9595285e-09
41	0x3227d7a3	9.7697095e-09
42	0xbc1ffc5d	-0.009764758
43	0x36665189	3.432013e-06
44	0xb104f037	-1.9345074e-09
45	0x31470647	2.896188e-09
46	0x30d89cf2	1.5760675e-09
47	0x2f925754	2.6619296e-10
48	0x2f4ba51d	1.8521402e-10
49	0x3ebf6cc6	0.37387675
50	0x38d0e6b5	9.9611854e-05
51	0xba0b8e9f	-0.00053236814
52	0xbbf0aeee	-0.007345072
53	0xb6affab4	-5.244592e-06
54	0x340dc87d	1.3204586e-07
55	0xb8f5ae64	-0.00011714993
56	0xb7caba68	-2.4167079e-05
57	0x3803c63c	3.1417454e-05
58	0xbe27d634	-0.16390306
59	0xb2a08412	-1.868651e-08
60	0xbb25d295	-0.0025302519
61	0xb7c82129	-2.38573e-05
62	0xb8a15248	-7.692404e-05
63	0xab901022	-1.0236293e-12

conv2.lin_root.weight f4 [64, 64]
0	0x80000620	-2.197e-42
1	0x8000151c	-7.573e-42
2	0x1812eadb	1.898863e-24
3	0x9b4479f7	-1.6252149e-22
4	0x391c25be	0.0001489138
5	0x2d3deb8a	1.0795706e-11
6	0x85d82057	-2.0324422e-35
7	0x24e825b9	1.00677866e-16
8	0x865ffa47	-4.2125513e-35
9	0xa2bc14ac	-5.097939e-18
10	0x366962db	3.4777247e-06
11	0x8bcdea9b	-7.931612e-32
12	0x8000044d	-1.543e-42
13	0x328569bb	1.5531318e-08
14	0x84d8ef6e	-5.1001237e-36
15	0x308108e9	9.388518e-10
16	0x2734c786	2.508818e-15
17	0x21a1d2c3	1.0965573e-18
18	0x80000298	-9.3e-43
19	0x00000531	1.862e-42
20	0x9e09f54b	-7.303445e-21
21	0x000003b2	1.326e-42
22	0x000006dc	2.46e-42
23	0x9f2818b9	-3.5595834e-20
24	0x00000433	1.506e-42
25	0x00000570	1.95e-42
26	0x318b12d9	4.047575e-09
27	0x000017d5	8.55e-42
28	0x80000502	-1.796e-42
29	0x881fa9f8	-4.804712e-34
30	0x00000239	7.97e-43
31	0xaf065664	-1.2217921e-10
32	0x3098837b	1.1096825e-09
33	0xb2f2d8cb	-2.8271094e-08
34	0x0000056c	1.945e-42
35	0x24229759	3.5256347e-17
36	0x9e1353c0	-7.799434e-21
37	0x9e6cdbd6	-1.2539197e-20
38	0x2c3d1b64	2.687372e-12
39	0x29508c35	4.6306888e-14
40	0xb2d40845	-2.4683809e-08
41	0xa1715a7f	-8.1773747e-19
42	0x0000036f	1.232e-42
43	0x00000527	1.848e-42
44	0xb81bcb91	-3.7144466e-05
45	0x1299a15a	9.695434e-28
46	0xa30a8464	-7.50903e-18
47	0x8c029f7a	-1.0062826e-31
48	0x0000612b	3.4857e-41
49	0x94fa9354	-2.530166e-26
50	0xb9868dfe	-0.00025664264
51	0x18d56170	5.5157596e-24
52	0x1ec2c707	2.0622865e-20
53	0x00000633	2.224e-42
54	0x000002e4	1.037e-42
55	0x084618f1	5.9612776e-34
56	0x1f355997	3.8402348e-20
57	0xaafbca6b	-4.4727012e-13
58	0x8d0dbc2b	-4.367548e-31
59	0x1ad01318	8.605763e-23
60	0x9e433367	-1.0333844e-20
61	0x1aa7a236	6.933165e-23
62	0x93f08372	-6.0714133e-27
63	0x0013e2ab	1.826188e-39
64	0x00000008	1.1e-44
65	0x241ae009	3.3583192e-17
66	0x9f01f792	-2.7521598e-20
67	0x3799c4ac	1.8330604e-05
68	0xb63a74d5	-2.7784165e-06
69	0xb075d314	-8.943044e-10
70	0x0babf7c1	6.623958e-32
71	0x26897f6d	9.540823e-16
72	0x8000045a	-1.561e-42
73	0x273d37d4	2.6259283e-15
74	0xb6923585	-4.3573696e-06
75	0x2f1aa862	1.406604e-10
76	0x000015fa	7.884e-42
77	0x3378c04e	5.79169e-08
78	0x8000116f	-6.254e-42
79	0x30f02aed	1.7474499e-09
80	0xb1a06989	-4.668611e-09
81	0x24e7ac67	1.0047234e-16
82	0x91b07eda	-2.7846082e-28
83	0x98b43481	-4.6581925e-24
84	0x24e24410	9.812718e-17
85	0x09538515	2.5460776e-33
86	0x8000039b	-1.293e-42
87	0xa0d7dfb1	-3.6570443e-19
88	0x00003432	1.8724e-41
89	0x00000255	8.37e-43
90	0xb3c108f7	-8.9888935e-08
91	0x000005d0	2.085e-42
92	0x0000001b	3.8e-44
93	0x00000b13	3.973e-42
94	0x000037e0	2.0044e-41
95	0x327ddb68	1.4776425e-08
96	0xb48916f7	-2.5534948e-07
97	0xb2c29966	-2.265433e-08
98	0x015d9802	4.070035e-38
99	0xa54c8a73	-1.7741088e-16
100	0x2bbc68aa	1.3387254e-12
101	0x9fde81a0	-9.4235104e-20
102	0x2c2df534	2.4720894e-12
103	0x00001735	8.325e-42
104	0xb4e7a1e5	-4.3144897e-07
105	0xa32497bd	-8.92259e-18
106	0x8000032f	-1.142e-42
107	0x94ffa340	-2.581281e-26
108	0x3099da39	1.1194238e-09
109	0x934ca7f9	-2.5831237e-27
110	0x258d9845	2.4562783e-16
111	0x20cd2f57	3.4759678e-19
112	0x80000619	-2.187e-42
113	0xa429e98b	-3.6843852e-17
114	0x0d93334d	9.071925e-31
115	0x1f58bfc5	4.5898407e-20
116	0xa6373b0a	-6.357089e-16
117	0x000000c2	2.72e-43
118	0x1c27f6d8	5.5574703e-22
119	0x084feabd	6.256773e-34
120	0xa5fbe816	-4.3698827e-16
121	0xad620682	-1.2848058e-11
122	0x9b662c07	-1.903938e-22
123	0x1d6c2c6c	3.1257306e-21
124	0xa41e861f	-3.4374394e-17
125	0x3296a4fd	1.7537326e-08
126	0x2998df2a	6.788869e-14
127	0x805b74d4	-8.39894e-39
128	0x800000e5	-3.21e-43
129	0xa6f83470	-1.722267e-15
130	0x9bb35904	-2.967059e-22
131	0x3a349560	0.00068887137
132	0x2c201aa3	2.2752154e-12
133	0xaa24671c	-1.46019e-13
134	0x8a2b40ca	-8.245536e-33
135	0xa487f8bd	-5.8968296e-17
136	0x01411a8b	3.5467545e-38
137	0xa416cc63	-3.2699187e-17
138	0xb5f2460b	-1.805079e-06
139	0x134df3e9	2.5994895e-27
140	0x80000503	-1.798e-42
141	0xb312d557	-3.4187305e-08
142	0x0000143d	7.26e-42
143	0x332de1fd	4.0485236e-08
144	0xb318a68e	-3.554174e-08
145	0x9f5aab9c	-4.6305248e-20
146	0x0a19a080	7.396869e-33
147	0x10bd9b44	7.478658e-29
148	0x1ca0ee86	1.0649569e-21
149	0x0318681b	4.4788293e-37
150	0x8000025e	-8.49e-43
151	0x9eeacf87	-2.4861545e-20
152	0x00000366	1.219e-42
153	0x800003bd	-1.341e-42
154	0x33811dea	6.012472e-08
155	0x000005d3	2.09e-42
156	0x000000b9	2.59e-43
157	0x000003d6	1.376e-42
158	0x0000066e	2.307e-42
159	0x31ac2a50	5.010669e-09
160	0xb38217a4	-6.057897e-08
161	0xb29943b9	-1.7842341e-08
162	0x000003b4	1.328e-42
163	0xa4542fae	-4.601056e-17
164	0xab85b094	-9.499229e-13
165	0x21511485	7.083911e-19
166	0x2f738a6a	2.2149896e-10
167	0x000006a9	2.389e-42
168	0xb38c8b5e	-6.544609e-08
169	0x19d9ff60	2.254042e-23
170	0x0000030f	1.097e-42
171	0x0b159364	2.880724e-32
172	0x95b69226	-7.3739796e-26
173	0x94d5305c	-2.1526578e-26
174	0xa5e64c65	-3.9950407e-16
175	0x9e0b969c	-7.389744e-21
176	0x80002e72	-1.6661e-41
177	0xb1f5f3ad	-7.158141e-09
178	0x92086469	-4.30378e-28
179	0x20fc9e3e	4.2795176e-19
180	0x286c66dc	1.3122936e-14
181	0x800001b6	-6.14e-43
182	0x97bd71b4	-1.2242541e-24
183	0x06ef5c2e	9.0037254e-35
184	0x21942aec	1.0040231e-18
185	0xad03a8e6	-7.483991e-12
186	0x9300a512	-1.6237257e-27
187	0x1caea10c	1.1555984e-21
188	0xa36d11fb	-1.2851603e-17
189	0x381a4af0	3.6786252e-05
190	0x2785ac51	3.710174e-15
191	0x8014315d	-1.854418e-39
192	0x00000264	8.58e-43
193	0x2c9d5dc9	4.4726206e-12
194	0x1eca3738	2.141042e-20
195	0xb685b917	-3.985256e-06
196	0x3615d770	2.2328131e-06
197	0x1f8c416b	5.940053e-20
198	0x115818db	1.7047055e-28
199	0xa9cbb1e5	-9.045871e-14
200	0x8013beca	-1.813317e-39
201	0xac2f05d0	-2.4872222e-12
202	0x11745854	1.9275424e-28
203	0x908a6fab	-5.4603454e-29
204	0x80002137	-1.1915e-41
205	0xb7eed68f	-2.8471723e-05
206	0x80000846	-2.968e-42
207	0x3214a2ca	8.651748e-09
208	0xb2092e61	-7.984995e-09
209	0x269bcc69	1.0810691e-15
210	0x00000061	1.36e-43
211	0x8000025d	-8.48e-43
212	0xb2a93e36	-1.970248e-08
213	0x80000285	-9.04e-43
214	0x80000160	-4.93e-43
215	0xa607f364	-4.716739e-16
216	0x80000118	-3.92e-43
217	0x000004f2	1.774e-42
218	0x3984b44a	0.00025311328
219	0x80000572	-1.953e-42
220	0x0000007d	1.75e-43
221	0x000b4d32	1.037883e-39
222	0x21057b05	4.522497e-19
223	0xb71094a7	-8.61768e-06
224	0xb734b3ce	-1.07707e-05
225	0xb877655f	-5.89838e-05
226	0x000001eb	6.88e-43
227	0x28b655fe	2.0243352e-14
228	0xae7d3b69	-5.7578307e-11
229	0xa6492096	-6.9780046e-16
230	0x30e1201a	1.6380028e-09
231	0x80001d2d	-1.0466e-41
232	0xb88570d8	-6.362953e-05
233	0x9e4ba7ac	-1.0781404e-20
234	0x8000042f	-1.501e-42
235	0x80000271	-8.76e-43
236	0x2ec0de67	8.770656e-11
237	0x936918dd	-2.9420993e-27
238	0xab0a5fb3	-4.916026e-13
239	0xa60377af	-4.5611957e-16
240	0x000022a8	1.2432e-41
241	0x242a77be	3.69643e-17
242	0x38ad61d0	8.267502e-05
243	0x2103ee46	4.469988e-19
244	0x2cfe4abc	7.2274114e-12
245	0x00000076	1.65e-43
246	0x80000144	-4.54e-43
247	0x8d86a963	-8.299166e-31
248	0xb399e1a8	-7.165664e-08
249	0xb1f6c04d	-7.1814044e-09
250	0x8eb4c0e3	-4.455917e-30
251	0x2189de05	9.342249e-19
252	0xab2a96b7	-6.060529e-13
253	0x9059467c	-4.2850003e-29
254	0xabff300b	-1.8132174e-12
255	0x8367f7c9	-6.816924e-37

lin.weight f4 [2, 64]
0	0x32ae5dd1	2.0298929e-08
1	0x34e91f51	4.3422418e-07
2	0x36bfad48	5.712416e-06
3	0xb83e5a1a	-4.5383444e-05
4	0x341797d3	1.4118204e-07
5	0x366b5001	3.5064297e-06
6	0x3c2d09ae	0.01056139
7	0x37fa0949	2.9806646e-05
8	0x35a39f90	1.2190885e-06
9	0x340bffa2	1.3038382e-07
10	0x31e9796f	6.794998e-09
11	0x392c8b5b	0.00016455112
12	0xb5d92701	-1.6179112e-06
13	0xb74c9642	-1.2194332e-05
14	0xb774a898	-1.4582787e-05
15	0xb9c1ca01	-0.00036962333
16	0xb4675a9d	-2.1546516e-07
17	0xb8878124	-6.461356e-05
18	0xb6ab42bc	-5.103966e-06
19	0xb6a2fef9	-4.857659e-06
20	0x37037375	7.83509e-06
21	0xb4d10146	-3.893021e-07
22	0x3bb13267	0.0054076198
23	0xba80c54c	-0.0009824424
24	0xb4542899	-1.9758808e-07
25	0x3c6192d8	0.01376792
26	0x32b806e9	2.1423562e-08
27	0x377bbcd2	1.5004729e-05
28	0x35256072	6.1607636e-07
29	0x3da56598	0.08076018
30	0xb3787a4f	-5.785324e-08
31	0xb3beb8ea	-8.8812e-08
32	0x37a56557	1.9716723e-05
33	0xb1613fe8	-3.2778136e-09
34	0xaab0afbc	-3.138582e-13
35	0xba9b6144	-0.0011854549
36	0x31db58aa	6.383819e-09
37	0x3686ba5a	4.0152054e-06
38	0x3ca45dea	0.020064313
39	0xb7c837fc	-2.3867928e-05
40	0x32040898	7.685365e-09
41	0xb826307d	-3.9622642e-05
42	0x3c0d2b27	0.008616245
43	0x38080c06	3.2436124e-05
44	0xb11385ad	-2.1467301e-09
45	0x30aa6f20	1.2400712e-09
46	0xb302ccb2	-3.0454153e-08
47	0x2e0360af	2.9871824e-11
48	0xb294eac7	-1.7336232e-08
49	0x3f1e17a0	0.617548
50	0xb709bc1e	-8.209636e-06
51	0x3baf4040	0.0053482354
52	0x3be51718	0.0069912784
53	0xb8e04a0b	-0.00010694944
54	0x348340fb	2.444793e-07
55	0xbac1cbd4	-0.0014785477
56	0x37b838a9	2.1960894e-05
57	0x39a127b5	0.00030737897
58	0xbf6eb6de	-0.93247783
59	0x33599ede	5.066874e-08
60	0xbc3eee1a	-0.0116534475
61	0x358766e0	1.0088224e-06
62	0xb89c4819	-7.452089e-05
63	0xaafe64c0	-4.5189373e-13
64	0xb2ae62e2	-2.0301233e-08
65	0xb4e92904	-4.3429475e-07
66	0x36ba182c	5.546046e-06
67	0x383d9a06	4.5204557e-05
68	0xb417a2e9	-1.4122237e-07
69	0xb66b7078	-3.5083194e-06
70	0xbc2d1ca9	-0.010565915
71	0x38017147	3.0861494e-05
72	0xb5a3b16c	-1.2196083e-06
73	0xb40c04bc	-1.3040238e-07
74	0x31c4b541	5.724957e-09
75	0xb92c897f	-0.0001645442
76	0x35d9ba5a	1.6221995e-06
77	0x374c947b	1.2193918e-05
78	0x37748436	1.4574316e-05
79	0x39c1caae	0.00036962837
80	0x346e617b	2.220094e-07
81	0x388783d5	6.461857e-05
82	0x36ab1324	5.0984254e-06
83	0x36a2fe1e	4.8575594e-06
84	0xb7024227	-7.764006e-06
85	0x34d0f516	3.8921343e-07
86	0xbbb132b5	-0.005407656
87	0x3a805454	0.0009790757
88	0x3454c43b	1.9815427e-07
89	0xbc617660	-0.013761133
90	0xb2af5fe1	-2.0416282e-08
91	0xb77bbcd1	-1.5004728e-05
92	0xb5256158	-6.1608944e-07
93	0xbda55d49	-0.08074433
94	0x33701e5c	5.5906966e-08
95	0x33beb3e9	8.88029e-08
96	0xb7a56821	-1.9718022e-05
97	0x31613d4c	3.2776653e-09
98	0x2ab0ba1e	3.1393025e-13
99	0xbac4d472	-0.0015016927
100	0xb1db258e	-6.3780083e-09
101	0x36856ec0	3.976602e-06
102	0xbca44e6c	-0.020056926
103	0xb7c833d3	-2.386599e-05
104	0xb203b076	-7.665326e-09
105	0xb827d080	-4.0010083e-05
106	0xbc0d2a87	-0.008616096
107	0xb8081e21	-3.2452986e-05
108	0x3174aabd	3.5603727e-09
109	0xb0aa7de1	-1.2404905e-09
110	0x3302cca5	3.0454107e-08
111	0x2e63cc2c	5.1795165e-11
112	0x3294eb0d	1.7336356e-08
113	0xbf1e17d4	-0.6175511
114	0x370b0b6f	8.287708e-06
115	0xbbaf3f3c	-0.0053481143
116	0xbbe52fe7	-0.006994236
117	0x38e0685b	0.0001070059
118	0xb47a83dc	-2.3331035e-07
119	0x3ac1994d	0.0014770419
120	0xb7b838b9	-2.1960923e-05
121	0xb9a12f82	-0.0003074371
122	0x3f6fb259	0.9363151
123	0xb3599ee9	-5.0668778e-08
124	0x3c3ef0e5	0.011654113
125	0xb587532d	-1.0082491e-06
126	0x389b90ea	7.417968e-05
127	0x2afe7bac	4.5205278e-13

lin.bias f4 [2]
0	0x3e817dce	0.25291294
1	0xbe823a7d	-0.25435248
